01_ImageClassification/1_MLP/mlp-model.pt (torch, 891932 bytes, 6 tensors)

input_fc.weight f4 [250, 784]
0	0x3cfa3451	0.030542525
1	0x3cdcb311	0.026940854
2	0x3d2a22f2	0.041537233
3	0x3d8b6497	0.06806295
4	0x3d31c2b8	0.04339859
5	0x3d4c3e84	0.049864307
6	0x3c4780cf	0.012176706
7	0x3d90932d	0.070593216
8	0x3cf18568	0.029482558
9	0x3d8e8323	0.06958606
10	0x3ca328ca	0.01991691
11	0x3d3f843b	0.046756964
12	0x3d92d6e9	0.07169897
13	0x3da3827d	0.07983873
14	0x3d8ec96b	0.06972011
15	0xba77bb41	-0.0009450205
16	0x3d5bc3d0	0.05365354
17	0x3d6ad969	0.057336245
18	0x3d86342b	0.06552919
19	0x3d807e36	0.06274073
20	0x3ceb2cea	0.02870794
21	0x3da798ed	0.08183465
22	0x3daa36dd	0.083112456
23	0x3d76ea4c	0.060282037
24	0x3ce3e78d	0.027820373
25	0x3d270f50	0.040786088
26	0x3d24adde	0.040204875
27	0x3d371a2e	0.0447027
28	0x3d581f56	0.05276426
29	0x3d83d89f	0.064378016
30	0x3d2862d0	0.04110986
31	0x3cba723f	0.022759555
32	0x3ccf77bf	0.025325654
33	0x3d431066	0.04762306
34	0x3d9fa00a	0.07794197
35	0x3ca966cc	0.0206789
36	0x3ca544ed	0.020174468
37	0xbc21babf	-0.009871184
38	0xbb7c3edb	-0.0038489613
39	0x3d1e2bfe	0.038616173
40	0x3d64276b	0.055701654
41	0x3d1d6ea4	0.038435593
42	0x3ccc6c7c	0.024954073
43	0x3d3ef1b9	0.046617243
44	0x3cfee82d	0.03111657
45	0x3da7fafe	0.0820217
46	0x3d96c64d	0.073620416
47	0x3dbfd853	0.093674324
48	0x3d2d90b8	0.042374343
49	0x3d835509	0.064127035
50	0x3d56bd04	0.052426353
51	0x3d239883	0.03994037
52	0x3d45ea9e	0.04831945
53	0x3c9046b3	0.017611837
54	0x3cfef1c3	0.03112114
55	0x3d849d6c	0.06475338
56	0x3c532210	0.012886539
57	0x3d073c7a	0.03301666
58	0x3cc56c01	0.024099352
59	0x3da51235	0.08060113
60	0x3d07045c	0.03296314
61	0x3b8bb417	0.0042634117
62	0xbbd84cf7	-0.006600972
63	0x3ce804db	0.028322628
64	0x3d1db98f	0.03850704
65	0x3cba4063	0.02273578
66	0x3c444580	0.011979461
67	0x3d9a0481	0.0752039
68	0x3cb48dd3	0.022040283
69	0xbc86bf4e	-0.016448643
70	0xbc8924b6	-0.016741138
71	0xb975f3b4	-0.00023455807
72	0x3be3aae4	0.006947862
73	0x3d84d56b	0.06486019
74	0x3d686c02	0.05674363
75	0x3d94d6e9	0.07267553
76	0x3d0300db	0.031983238
77	0x3cbed60d	0.023295427
78	0x3d847ca8	0.06469089
79	0x3da8e298	0.08246344
80	0x3d664f65	0.05622806
81	0x3c1706c2	0.00921792
82	0x3d787c7a	0.060665585
83	0x3d868753	0.0656878
84	0x3cb5bb7f	0.022184132
85	0x3d373694	0.044729784
86	0x3d95c309	0.07312591
87	0x3cb397a9	0.021922903
88	0x3ce81c31	0.028333755
89	0xbb2b527d	-0.0026141696
90	0xbc0e87f7	-0.008699409
91	0xbd1a28fc	-0.037636742
92	0xbce5028a	-0.027955312
93	0xbd1a50f3	-0.037674855
94	0xbc8af336	-0.016961675
95	0x3cbcc0b8	0.023041114
96	0xbd4d2cec	-0.05009167
97	0xbd5a4075	-0.053284127
98	0xbd2cd520	-0.04219544
99	0x3cbca680	0.023028612
100	0x3d82926c	0.06375584
101	0x3cbc47ba	0.02298342
102	0xbd1e61ba	-0.038667418
103	0xbce3c80b	-0.027805349
104	0x3c8126d2	0.015765581
105	0x3d95bb7d	0.07311151
106	0x3d0f4796	0.03498038
107	0x3d87ecc0	0.06636953
108	0x3c441f0a	0.011970291
109	0x3d0ce55e	0.03439843
110	0x3c18e1c8	0.009331174
111	0x3c44d3e3	0.012013408
112	0x3d9420b4	0.072328
113	0x3c508918	0.012727998
114	0x3d6b01b1	0.05737466
115	0x3da3fdab	0.08007368
116	0xbc983055	-0.018577734
117	0x3cf4f5b8	0.029902324
118	0xbcce24a7	-0.025163962
119	0xbd424bb7	-0.04743549
120	0xbd234c33	-0.03986759
121	0xbd46f9d8	-0.048578113
122	0xbcaa092c	-0.020756327
123	0xbd481d0f	-0.048855837
124	0xbd170aac	-0.036875412
125	0xbb8270d7	-0.0039807367
126	0xbc99ac5c	-0.018758945
127	0x3d49a4a5	0.049229283
128	0x3c843405	0.016138086
129	0xbc97bf03	-0.018523699
130	0xbce99a51	-0.028515967
131	0xbb63725b	-0.0034705612
132	0x3d04d0d2	0.03242571
133	0x3da58c6b	0.08083423
134	0x3c0f3092	0.008739607
135	0x399efe32	0.000303255
136	0x3d0e856a	0.034795202
137	0x3d33f7ce	0.043937497
138	0x3cb86ec0	0.022513747
139	0x3c9c0a2c	0.01904782
140	0x3d7d0f13	0.061781954
141	0x3d584712	0.052802153
142	0x3d500a2a	0.050790943
143	0x3d7bd2d8	0.061480373
144	0xbb5f7268	-0.003409529
145	0x3be5e594	0.0070158932
146	0xbcbe8f38	-0.023261651
147	0xbcefeede	-0.029288705
148	0xbc8b31d3	-0.016991531
149	0x3ba3c783	0.004998149
150	0x3cd98f2a	0.026557524
151	0xbb777c07	-0.0037763135
152	0xbcc6b5cb	-0.024256608
153	0x3d63b39b	0.055591207
154	0x3cfd5e0b	0.030928632
155	0x3c335c79	0.01094734
156	0xbb72e4eb	-0.0037062715
157	0xbbabe1fa	-0.0052454444
158	0xbd1473fc	-0.036243424
159	0x3c9a9a19	0.018872308
160	0x3c2a7d77	0.01040589
161	0xbcb02807	-0.021503462
162	0x3d9f2cbe	0.07772206
163	0x3d8594d1	0.06522525
164	0x3cc1b7a1	0.023647131
165	0x3c0d1356	0.008610567
166	0x3d13e002	0.036102302
167	0x3d16e49d	0.036839116
168	0x3d23867f	0.039923187
169	0x3da4c311	0.080450185
170	0x3d8ef1cc	0.06979713
171	0x3d2b006b	0.041748445
172	0xbbef06e1	-0.007294521
173	0xbc0015e2	-0.007817717
174	0xbcce56ac	-0.025187813
175	0xbcc37d33	-0.02386341
176	0x3c99759c	0.018732838
177	0xbcaafc23	-0.020872181
178	0xbccee2bf	-0.025254605
179	0x3d31f80d	0.04344945
180	0xbae4bde6	-0.0017451614
181	0x3d361c5f	0.04446065
182	0x3d11411f	0.035462495
183	0x3cd59a8e	0.026074674
184	0xbbdaf5de	-0.0066821417
185	0x3c823b02	0.015897278
186	0x3d467a41	0.048456434
187	0x3da33b1e	0.0797026
188	0xbc407f2b	-0.011749069
189	0x3c35b722	0.011091026
190	0x3d905907	0.070482306
191	0x3d996341	0.07489634
192	0x3da81069	0.08206255
193	0x3d757cf3	0.059933614
194	0x3da308ed	0.07960687
195	0x3d7fed34	0.062482074
196	0x3d8b5eff	0.068052284
197	0x3d1cf71e	0.038321607
198	0x3d127229	0.035753403
199	0x3d4226d3	0.047400307
200	0x3bb45348	0.005503092
201	0xbd685e9b	-0.056730848
202	0x3ba32486	0.004978719
203	0x3c17e41e	0.009270696
204	0x3be1418b	0.0068742684
205	0xbd3c9e4c	-0.0460494
206	0xbaa2ab8a	-0.0012410742
207	0xbd2e5b4c	-0.042567536
208	0x3b009e85	0.0019625735
209	0x3d6cfc08	0.057857543
210	0x3cf3ade3	0.029746002
211	0x3cbe798c	0.023251317
212	0xbc2fae88	-0.010722764
213	0xbc8a64f8	-0.016893849
214	0xbd118d6b	-0.035535257
215	0x3cb4a034	0.022049047
216	0xbc8b0123	-0.016968315
217	0xbd3ab2fa	-0.04558084
218	0x3d71ce2b	0.059034508
219	0x3d9a70bb	0.07541033
220	0x3dde667b	0.1085939
221	0x3dedd722	0.11613299
222	0x3cf5f062	0.03002185
223	0x3ce3617a	0.027756441
224	0x3d0b3c71	0.03399319
225	0x3da9a3fa	0.08283229
226	0x3c94e69c	0.01817637
227	0x3d4e8866	0.05042305
228	0xbc399de5	-0.011329149
229	0xbd0409e3	-0.03223599
230	0x3d367174	0.04454179
231	0xbcc7d95e	-0.024395641
232	0x3cbab1fb	0.022789946
233	0x3bf663ff	0.0075192447
234	0x3c8de018	0.01731877
235	0x3cda4c72	0.02664778
236	0x3d25bf3b	0.040465575
237	0x3db731c2	0.089450374
238	0x3d353d67	0.04424801
239	0x3c2b2142	0.010444941
240	0x3d2416d5	0.040060837
241	0x3c0ce0f9	0.00859856
242	0xbc69410a	-0.014236698
243	0xbccd031d	-0.025025899
244	0xbda1407e	-0.07873629
245	0xbd97d9f5	-0.07414619
246	0xbd6f3f9c	-0.058410272
247	0x3d4a1f89	0.04934648
248	0x3d12e9a3	0.035867345
249	0x3d0f7c5f	0.03503072
250	0x3dbf5950	0.09343207
251	0x3d84a55f	0.064768545
252	0x3d60b94e	0.05486422
253	0x3d4a5309	0.049395595
254	0x3d89ecc4	0.067346126
255	0x3d0c0bc3	0.034190904

input_fc.bias f4 [250]
0	0xbd82d13a	-0.06387563
1	0xbced150f	-0.028940706
2	0xba5b6371	-0.0008369005
3	0xbc62479c	-0.013811018
4	0xbd034215	-0.032045443
5	0xbd93561a	-0.07194157
6	0xbd4f87c6	-0.050666593
7	0xbd9c0fc8	-0.076201975
8	0xb8e06dd4	-0.000107016094
9	0xbd88c150	-0.066774964
10	0xbcd3f160	-0.025871933
11	0x3cbf010f	0.023315934
12	0xbcfe1774	-0.031017043
13	0xbdcdada1	-0.10042883
14	0xbd813c34	-0.06310311
15	0xbc26b2bf	-0.010174452
16	0x3c251c59	0.010077559
17	0xbd436cf2	-0.04771132
18	0x3b849c79	0.0040469733
19	0xbd056cbd	-0.032574404
20	0x3c6ebb63	0.014571044
21	0x3c7b8c8a	0.015353331
22	0xbd4c28ab	-0.04984347
23	0x3d65ca96	0.056101404
24	0xbd1118e9	-0.035424147
25	0xbc85da19	-0.016339349
26	0x3c145f8d	0.009055984
27	0x3c93968d	0.018016124
28	0x3d48eedf	0.04905593
29	0xbbfddd33	-0.0077473163
30	0xbcf0705c	-0.029350452
31	0xbc874993	-0.016514575
32	0xbc539e6c	-0.012916189
33	0xbd160f17	-0.036635485
34	0xbce6f5e1	-0.028193416
35	0xbcf28bbc	-0.029607646
36	0x3d5d28a2	0.05399383
37	0xbd2973ff	-0.041370388
38	0xbc0ffdcc	-0.008788537
39	0xbc8cc5a0	-0.017184079
40	0xbce9a220	-0.02851969
41	0xbc9a1ad1	-0.018811615
42	0xbd18f195	-0.037339766
43	0xbd8593e7	-0.06522351
44	0xbcfb0e0c	-0.030646347
45	0xbc6b5f65	-0.014366006
46	0xbafb79bf	-0.0019186063
47	0x3c8c3c66	0.017118644
48	0xbbd27dfe	-0.006423711
49	0x3b95b995	0.0045692422
50	0x3d2af0c3	0.041733515
51	0xbc767e2a	-0.015044728
52	0xbd5157ab	-0.051108997
53	0xbd32701f	-0.04356396
54	0xbc32d560	-0.01091513
55	0xbd30ae2c	-0.043134853
56	0xbd23bebf	-0.03997683
57	0xbbf90929	-0.007599969
58	0xbbe78489	-0.00706536
59	0xbd6e2320	-0.058138967
60	0xbadcabf4	-0.0016835914
61	0xbda55405	-0.08072666
62	0xbcec7da9	-0.028868513
63	0xbcd3e0de	-0.025864061
64	0xbd895f13	-0.06707587
65	0xbaf751e6	-0.0018869012
66	0xbb37aaa8	-0.0028025303
67	0x3c2189db	0.009859527
68	0xbd8668f6	-0.065629885
69	0xbc60d0d7	-0.013721666
70	0xbcada86b	-0.021198472
71	0xbd186cd2	-0.037213154
72	0xbd8d8cea	-0.06911643
73	0xbcfc9b3e	-0.030835744
74	0xbcab14b7	-0.020883901
75	0xbbad03b7	-0.005279984
76	0xbd2384ae	-0.039921455
77	0xbd517c89	-0.051144157
78	0xbd9fd04c	-0.07803401
79	0xbd2e7d1b	-0.04259978
80	0xbb9d1634	-0.0047939066
81	0x3b0bda50	0.0021339841
82	0x3c84467d	0.016146893
83	0xbb808954	-0.003922621
84	0xbdbf84ce	-0.09351502
85	0xbd31d569	-0.043416414
86	0xbcbd545a	-0.023111511
87	0xbdd53dc9	-0.10412175
88	0xbca321cd	-0.019913578
89	0xbd4de6c0	-0.05026889
90	0xbb98d2fc	-0.004663823
91	0xbd6213aa	-0.055194534
92	0xbd1d0d24	-0.03834261
93	0xbd47b289	-0.04875425
94	0xbd2b053f	-0.04175305
95	0xbc81e6c6	-0.015857112
96	0x3cf89db5	0.030348638
97	0xbda1834a	-0.078863695
98	0xbcb4a66b	-0.02205201
99	0xbd041ece	-0.03225594
100	0xbcb06dda	-0.021536756
101	0xbcbbd1cc	-0.022927187
102	0xbc7797a1	-0.015111835
103	0xbd05b30e	-0.032641463
104	0xbd845ef9	-0.06463427
105	0xbc008489	-0.007844099
106	0xbd30cfbc	-0.04316686
107	0x3c862122	0.01637322
108	0x3b73816b	0.0037155997
109	0xbcdc6b91	-0.02690676
110	0x3b3ab241	0.0028487595
111	0x3b1591bc	0.002282246
112	0x3cc2d3ff	0.023782728
113	0xbd0cbb75	-0.03435846
114	0xbca09388	-0.019601598
115	0xbdb291d8	-0.08719224
116	0xbd06f262	-0.032945998
117	0xbdbf4a19	-0.09340305
118	0x3d0f3fbd	0.034972895
119	0xbc86294e	-0.016377117
120	0xbd3eb345	-0.046557683
121	0xbd40ff3d	-0.047118414
122	0xbd234f2c	-0.039870426
123	0xbcabc1bb	-0.020966401
124	0xbd0aeaec	-0.033915445
125	0xbd77d495	-0.06050547
126	0xbd49112f	-0.049088653
127	0xbd68d3b2	-0.056842513
128	0xbc7a7046	-0.015285557
129	0xbdaa5453	-0.08316865
130	0xbcd81c01	-0.02638054
131	0x3cc939d7	0.024563713
132	0x3b3476c9	0.0027536622
133	0xbc3b1273	-0.011417973
134	0xbd4b82b0	-0.04968518
135	0xbd560ec1	-0.052260164
136	0x3d51f2cc	0.05125694
137	0xbd3390eb	-0.043839376
138	0xbc91f1e3	-0.017815536
139	0xbda02af4	-0.07820693
140	0xbabdcf83	-0.0014481399
141	0xbc239a1b	-0.009985472
142	0x3cb1367f	0.021632431
143	0xbc0b7a9c	-0.008513119
144	0xbd32faa5	-0.043696065
145	0x3cbe37d5	0.023219982
146	0xbcf8ecc4	-0.030386336
147	0xbcf1aeb4	-0.02950225
148	0xbcf93d37	-0.030424697
149	0x3c29a44b	0.010354112
150	0xbda799d3	-0.081836365
151	0xbbe93c27	-0.0071177664
152	0x3caaadcd	0.020834828
153	0x3d4af421	0.049549226
154	0xbda3192c	-0.079637855
155	0x3d11949c	0.035542116
156	0x3cd68277	0.026185257
157	0xbd5d0d15	-0.053967554
158	0x3a9fd6f8	0.0012194803
159	0xbc08f5b6	-0.008359363
160	0xbc9d87e7	-0.019229842
161	0xbd8057dc	-0.06266758
162	0xbd878782	-0.06617643
163	0xbd41e100	-0.047333717
164	0xbd9e8abc	-0.07741305
165	0x3b2d5af6	0.0026451922
166	0xbcee7ff7	-0.029113753
167	0xbc4a6154	-0.012352306
168	0xbd80ed92	-0.06295313
169	0x3c558cec	0.013034087
170	0xbce598f8	-0.028027043
171	0xbbbd0093	-0.0057678907
172	0x3c4e9676	0.012609115
173	0x3c6b7a09	0.014372357
174	0xbd54e617	-0.051977243
175	0xbcddb81e	-0.027065333
176	0xbd26c48c	-0.040714785
177	0x3d31fdbe	0.043454878
178	0xbcb1d862	-0.021709625
179	0xbd9e43f5	-0.077278055
180	0xbc71195c	-0.014715519
181	0x3d3be944	0.045876756
182	0x3c315f2d	0.010825914
183	0x3b5933bd	0.003314241
184	0x3d31fbc5	0.043452997
185	0xbca23208	-0.019799247
186	0x3af780fb	0.0018883044
187	0xbbcad634	-0.006190086
188	0xbce8a118	-0.028397128
189	0x3c625776	0.013814798
190	0xbd5b0800	-0.053474426
191	0xbcd97f6d	-0.02655002
192	0xbd74b14c	-0.059739396
193	0xba2a07f5	-0.0006486171
194	0xbc96e3cc	-0.018419169
195	0xbc0434d0	-0.008069232
196	0xbc1e017b	-0.009643908
197	0xbd8aec32	-0.06783332
198	0xbd13df39	-0.036101554
199	0xbc0e04fe	-0.008668182
200	0xbc8435a1	-0.016138854
201	0xbd86f8f6	-0.06590454
202	0xbc3f7509	-0.011685618
203	0xbd6ef325	-0.05833735
204	0xbcedc0e3	-0.02902264
205	0xbda0b382	-0.078467384
206	0xbc8aab00	-0.016927242
207	0xbc858ab9	-0.0163015
208	0xbd97dbe2	-0.07414986
209	0xbd5af7fd	-0.053459156
210	0x3d1b13e6	0.037860774
211	0xbd04fbb4	-0.032466605
212	0xbce267e8	-0.027637437
213	0x3be61147	0.0070211026
214	0xbd5d8f0c	-0.0540915
215	0x3cda9700	0.02668333
216	0xbb681db1	-0.0035418088
217	0xbb9f699e	-0.0048648855
218	0xbd777a32	-0.06041927
219	0xbd1458eb	-0.03621761
220	0xbd4916ad	-0.04909389
221	0x3c95e247	0.018296374
222	0xbd353183	-0.04423667
223	0xbd5bb81a	-0.05364237
224	0xbc5cd273	-0.013477909
225	0x3c3e3793	0.01160993
226	0xbd776101	-0.060395245
227	0xbcbb310e	-0.02285054
228	0xbca76779	-0.020435082
229	0xbd531c3e	-0.051540606
230	0xbcd4c550	-0.025972992
231	0x3c56df7a	0.013114804
232	0xbc4c68b5	-0.012476136
233	0xbcbbffc8	-0.022949114
234	0xbd8f432a	-0.069952324
235	0xbcbc233d	-0.022966022
236	0x3aa82150	0.0012827311
237	0x3c83f90d	0.016109968
238	0xbdcc9842	-0.099899784
239	0x3cbf4532	0.023348425
240	0xbd972ef1	-0.07382
241	0xbc10713e	-0.008816062
242	0xbd38a0a3	-0.04507507
243	0xbc5d8ed2	-0.013522821
244	0xbc9caaab	-0.01912435
245	0x3d546ec2	0.05186344
246	0xbd35588f	-0.04427391
247	0xbc0295f6	-0.007970324
248	0xbcabf09d	-0.020988757
249	0x3b877278	0.004133519

hidden_fc.weight f4 [100, 250]
0	0xbd49706d	-0.049179483
1	0xbea36a6e	-0.31917137
2	0x3e02d3a5	0.12776048
3	0xbc68e66d	-0.014215094
4	0xbc9189ec	-0.017765962
5	0x3d3cf554	0.0461324
6	0xbd286789	-0.041114364
7	0xbd96e5e7	-0.07368069
8	0xbe02e557	-0.12782799
9	0x3de46665	0.11152343
10	0xbe8719af	-0.26386783
11	0x3d668fb2	0.056289382
12	0x3cc09bfc	0.02351188
13	0x3d2b4d79	0.04182193
14	0xbd88f70b	-0.06687745
15	0xbc4fc1a8	-0.012680449
16	0xbd84be97	-0.06481665
17	0x3d356827	0.04428878
18	0x3deaf6e6	0.114728734
19	0x3e4d4a00	0.2004776
20	0xbe1cc31c	-0.15308803
21	0x3e2fd25a	0.17170087
22	0xbe005c7f	-0.12535284
23	0x3e219fc6	0.15783605
24	0x3b3dc381	0.002895564
25	0x3ca2155c	0.019785576
26	0xbdb841ce	-0.08996926
27	0xbe0db008	-0.13836682
28	0x3c8c384f	0.017116694
29	0x3b078558	0.0020678844
30	0xbd0d7111	-0.034531657
31	0xbd8b4eaf	-0.06802117
32	0xbd803534	-0.06260148
33	0x3dcd4fec	0.100250095
34	0xbe05ddc8	-0.13072884
35	0xbdbbcc55	-0.091698326
36	0x3d6f13d5	0.058368523
37	0x3dc61e2b	0.09673723
38	0x3ce9ae78	0.028525576
39	0xbd00415e	-0.03131234
40	0xbe6bde53	-0.23034029
41	0x3c816b9d	0.015798384
42	0xbde49440	-0.11161089
43	0xbdb89f99	-0.09014816
44	0xbdbfbf1c	-0.09362623
45	0xbea2204a	-0.3166526
46	0xbe25bdae	-0.16185638
47	0x3da886bd	0.08228824
48	0xbd832968	-0.06404382
49	0xbce63bf7	-0.028104765
50	0x3ddabbd8	0.106803596
51	0xba9b8927	-0.0011866436
52	0xbe06e5a0	-0.13173532
53	0x3dd5abea	0.10433181
54	0x3db87612	0.09006895
55	0x3d2fdb1d	0.042933572
56	0xbd6ef472	-0.05833859
57	0xbd9cc2c9	-0.0765434
58	0x3b3380f2	0.002739009
59	0x3dbd752b	0.09250864
60	0xbe121d3f	-0.14268969
61	0x3e055d35	0.13023837
62	0xbe1b861c	-0.15187877
63	0xbe6fcbf8	-0.23417652
64	0x3d0583af	0.032596286
65	0xbda1a4a1	-0.078927286
66	0xbd9e0a1b	-0.07716771
67	0xbacf5394	-0.0015817755
68	0xbaa57017	-0.0012621906
69	0x3d3771b3	0.044786166
70	0xbd50a5c9	-0.050939355
71	0xbe38a76d	-0.18032618
72	0x3d0e4b6b	0.034739893
73	0x3e0b9161	0.13629676
74	0xbdf46639	-0.1193356
75	0xbdaed1ed	-0.08536134
76	0x3c8fd59f	0.017557917
77	0xbcf383a6	-0.02972586
78	0x3c66eac4	0.014094058
79	0x3daa04bf	0.083016865
80	0x3c6bb203	0.014385703
81	0x3d11296b	0.03543989
82	0x3daedccb	0.08538207
83	0xbdce3aa8	-0.100697815
84	0x3dd0c6f6	0.10194199
85	0xbcaeb955	-0.021328608
86	0xbd693277	-0.056932893
87	0x3d901342	0.07034923
88	0x3caee15c	0.021347694
89	0x3c35ea7d	0.01110327
90	0x3d269700	0.04067135
91	0xbd4afd65	-0.049558062
92	0x3dadd952	0.08488716
93	0x3d0413f5	0.032245595
94	0x3e1f602e	0.15564033
95	0xbd5bf3ad	-0.053699184
96	0x3d699f2a	0.057036556
97	0x3d3d4bdf	0.046214934
98	0xbe4b3153	-0.19843034
99	0xbd883923	-0.06651523
100	0xbc18ffe3	-0.009338352
101	0x3d243aa6	0.040094994
102	0x3c87e2aa	0.016587574
103	0x3b9b43ba	0.0047382982
104	0xbd49c945	-0.04926421
105	0xbdd45daf	-0.10369431
106	0xb8dbd84c	-0.00010483022
107	0xbdc0cbab	-0.094138466
108	0xbd93ea17	-0.072223835
109	0xbe6902da	-0.22754994
110	0xbcc887fb	-0.024478903
111	0xbdbc8c9d	-0.09206507
112	0x3cd551c0	0.026039958
113	0x3dc06a69	0.09395296
114	0x3c9bd116	0.019020598
115	0x3d21385f	0.0393604
116	0x3da65e93	0.08123507
117	0x3d652145	0.05593993
118	0xbd8c945b	-0.06864234
119	0x3e7d2b2f	0.24723504
120	0x3cadedb3	0.021231508
121	0xbd406944	-0.04697539
122	0xbd860913	-0.065446995
123	0x3dba9afc	0.09111592
124	0xbb1fd6ad	-0.0024389431
125	0xbd8887b8	-0.06666511
126	0x3b84ca89	0.0040524644
127	0xbe11687b	-0.14200012
128	0x3dffeed8	0.12496728
129	0x3e0128cf	0.12613223
130	0xbe42ff7c	-0.19042772
131	0xbddc77bf	-0.10765027
132	0xbe394ef8	-0.1809653
133	0x3d79af12	0.060957976
134	0x3e099ea4	0.13439423
135	0x3d9b7f28	0.075926125
136	0x3e004a95	0.12528451
137	0xbd76f261	-0.060289744
138	0x3cd963e3	0.026536888
139	0x3c7d65df	0.0154661825
140	0x3ce1d45b	0.02756708
141	0x3cdf85bc	0.02728545
142	0xbb9ca829	-0.0047807884
143	0xbcccf4c9	-0.025019066
144	0xbdafb180	-0.08578777
145	0x3c5aad97	0.013347051
146	0xbd5e26a3	-0.054236066
147	0x3bbcd550	0.0057627335
148	0x3d343259	0.043993328
149	0x3d945006	0.07241826
150	0x3dafd0fb	0.08584782
151	0x3cbb7aa6	0.022885632
152	0x3d9dea36	0.07710688
153	0xbd89314f	-0.06698858
154	0x3d8dba5b	0.0692031
155	0x3df5d376	0.120032236
156	0xbacf398b	-0.0015809996
157	0x3c95028c	0.018189691
158	0xbe7ee2e3	-0.24891238
159	0xbdedf0eb	-0.11618217
160	0x3b8d26ec	0.0043076184
161	0x3c32093e	0.010866461
162	0x3c1e634d	0.00966723
163	0xbcac0314	-0.020997562
164	0xbb077210	-0.0020667352
165	0x3ce00a90	0.027348787
166	0xbd8dec56	-0.06929843
167	0xbd3c3236	-0.045946322
168	0x3d49bff7	0.049255338
169	0xbd9d9c01	-0.07695771
170	0xbdf3515c	-0.118807524
171	0xbdac94af	-0.08426797
172	0xbdc8bd27	-0.09801703
173	0xbd822b9e	-0.063559756
174	0x3db48557	0.08814495
175	0x3d837ed6	0.064206764
176	0xbd924d36	-0.07143633
177	0x3c6f6b1e	0.014612941
178	0xbd47bc9b	-0.048763853
179	0xbd20fa5e	-0.03930127
180	0x3d32ecb1	0.043682758
181	0xbe3bf199	-0.18353881
182	0xbe2723b0	-0.16322207
183	0xbe591fb1	-0.21203496
184	0xbe103837	-0.14083944
185	0xbdd207cf	-0.102553956
186	0x3dd5803a	0.10424848
187	0xbc90d29d	-0.017678553
188	0xbd22876e	-0.039679937
189	0x3b546f8d	0.0032415122
190	0x3d6568f0	0.05600828
191	0x3e5c75ac	0.21529263
192	0xbe9243a3	-0.28567228
193	0x3d340040	0.04394555
194	0x3d557aa2	0.052118905
195	0xbe57f265	-0.2108856
196	0x3daf407b	0.085572205
197	0xba90845f	-0.0011025778
198	0xbdb644ad	-0.088998176
199	0x3d27fabf	0.041010614
200	0x3b5775c2	0.0032876586
201	0xbc3f3038	-0.011669211
202	0xbdd1dcdf	-0.10247206
203	0x3dbe4333	0.09290161
204	0xbd055592	-0.03255231
205	0x3da5f1fe	0.08102797
206	0x3d896de7	0.06710415
207	0x3d47793f	0.048699614
208	0xbe2b7189	-0.16742529
209	0x3da66efa	0.08126636
210	0xbcab407b	-0.02090477
211	0xbe25b9da	-0.16184178
212	0xbbfb63b6	-0.0076717986
213	0xbc4fa452	-0.012673454
214	0x3e06bdbf	0.1315832
215	0xbd277c9c	-0.04089032
216	0x3d2ff522	0.042958386
217	0x3c7d4f43	0.015460792
218	0xbb6dac97	-0.0036266202
219	0xbd6f12cc	-0.058367535
220	0x3da36879	0.07978911
221	0xbe1f5875	-0.15561087
222	0x3d29c1d8	0.04144463
223	0xbd2963a6	-0.041354798
224	0xbe6441bb	-0.22290699
225	0x3d403fb7	0.046935763
226	0x3d764744	0.060126558
227	0xbc8e2430	-0.01735124
228	0xbdb6c737	-0.08924716
229	0x3e448774	0.19192296
230	0x3d3705d8	0.044683307
231	0x3dafb4da	0.085794166
232	0xbe09ff7f	-0.1347637
233	0xbd205b9e	-0.039149873
234	0xbd4346ff	-0.04767513
235	0x3e613c62	0.2199569
236	0x3cbcde55	0.023055235
237	0xbd4c4929	-0.04987446
238	0x3deb9b96	0.11504285
239	0xbdc27657	-0.09495228
240	0x3e075573	0.1321619
241	0xbdebd630	-0.115154624
242	0x3cae801e	0.021301325
243	0x3df4d2d9	0.119542785
244	0xbd281289	-0.0410333
245	0x3b8daed6	0.0043238206
246	0xbdf5ce43	-0.12002232
247	0xbe4459d0	-0.19174886
248	0xbdad26cc	-0.084546655
249	0x3dbab282	0.09116079
250	0xbb9b32ae	-0.004736266
251	0x3e0d57f9	0.1380309
252	0xbc0b80ae	-0.008514566
253	0xbd24a2d1	-0.040194336
254	0x3d9cdcc1	0.07659293
255	0x3d6b34e2	0.05742348

hidden_fc.bias f4 [100]
0	0x3dabdca7	0.083916955
1	0xbe2d66e1	-0.16933776
2	0xbd3f177b	-0.046653252
3	0x3dc18075	0.09448329
4	0xbda23ecd	-0.079221345
5	0x3de1efa6	0.110320374
6	0xbc00e06d	-0.007866007
7	0xbde4e938	-0.111772954
8	0xbcbee57f	-0.023302792
9	0xbb5c373c	-0.0033602258
10	0xbd25daa1	-0.040491704
11	0x3d6b4b9a	0.057445146
12	0x3ca540bb	0.020172467
13	0x3df06ebd	0.11739872
14	0xbce7784c	-0.028255604
15	0xbdcf77de	-0.10130285
16	0xbcf7e069	-0.030258374
17	0x3dd0224d	0.10162792
18	0x3dca9893	0.098923825
19	0xbd96ed85	-0.07369522
20	0x3e2680f3	0.16260128
21	0x3dd0feac	0.10204825
22	0x3e2d98b8	0.16952789
23	0xbdbf8b34	-0.09352723
24	0xbd07a3ab	-0.03311507
25	0xbe61637c	-0.22010607
26	0x3d84f2ec	0.06491646
27	0xbd15e94b	-0.03659944
28	0xbd245f3c	-0.040129885
29	0x3e48a695	0.19594796
30	0x3df5e369	0.12006266
31	0xbd33b3da	-0.04387269
32	0xbe5a2731	-0.21304013
33	0x3e3560b0	0.17712665
34	0x3ce4b387	0.027917637
35	0xbd62fd44	-0.055417314
36	0x3d89ccd2	0.067285195
37	0x3da4a26b	0.08038791
38	0x3e0f85b7	0.14015852
39	0xbe001d4a	-0.12511173
40	0xbdbbbf9b	-0.09167405
41	0x3d3dd129	0.04634205
42	0x3de23210	0.11044705
43	0x38b5f450	8.676259e-05
44	0x3d0abe35	0.0338728
45	0x3bda19fe	0.0066559305
46	0xbe3e1be3	-0.18565325
47	0xba647375	-0.0008714714
48	0xbda9e745	-0.08296064
49	0xbddec0ba	-0.108766034
50	0xbd24f40a	-0.040271796
51	0xbc980bf0	-0.01856038
52	0xbc909796	-0.017650407
53	0x3d963377	0.07334035
54	0xbdcb3ab1	-0.09923304
55	0x3d4d29ee	0.050088815
56	0x3e00e6df	0.1258807
57	0xbe4a403a	-0.19751063
58	0xbc060145	-0.008179014
59	0xbd99c3b5	-0.07508031
60	0xbc9dfea0	-0.019286454
61	0x3e7203e2	0.23634294
62	0x3e462045	0.19348247
63	0x3e329f72	0.17443636
64	0xbe0f74a1	-0.14009334
65	0xbc950284	-0.018189676
66	0x3d345848	0.044029504
67	0xbd78c339	-0.060733054
68	0x3dfb2849	0.12263543
69	0xbcdf6dc5	-0.027274022
70	0x3c449080	0.011997342
71	0x3d9fd6a2	0.0780461
72	0x3df03cea	0.117303684
73	0x3dfb76bf	0.122785084
74	0x3ddf5d72	0.10906495
75	0xbdc6769d	-0.096905924
76	0xbd283b58	-0.04107222
77	0xbdc44fb9	-0.095855184
78	0x3d3891de	0.045060985
79	0xbdebe257	-0.1151778
80	0xbd4dd009	-0.050247226
81	0x3e3aa2a3	0.18226103
82	0xbde56ef3	-0.112028025
83	0xbd966461	-0.073433645
84	0xbcc68c34	-0.024236776
85	0x3dcdb5a3	0.1004441
86	0xbe275f22	-0.16344884
87	0x3d003cf5	0.031308133
88	0x3e3a2e24	0.18181664
89	0x3cbf7ec1	0.02337587
90	0xbca8b0b9	-0.02059208
91	0xbe043e1d	-0.1291432
92	0x3cc7769a	0.024348546
93	0xbd9cbe63	-0.07653501
94	0x3e5adfe3	0.21374469
95	0x3dec4146	0.115358874
96	0x3c8f9092	0.017524991
97	0x3e548da5	0.20757158
98	0xbd19270a	-0.037390746
99	0x3d9b8847	0.07594352

output_fc.weight f4 [10, 100]
0	0x3d80f69b	0.06297036
1	0x3d7ab926	0.061211728
2	0xbe2d51c9	-0.1692573
3	0x3dc56937	0.09639209
4	0xbdd0feee	-0.10204874
5	0x3d86b584	0.0657759
6	0x3e06c07b	0.13159363
7	0x3d6d90bb	0.057999354
8	0x3d8ff273	0.070286654
9	0x3d41d2ca	0.047320165
10	0x3e2b1565	0.1670738
11	0x3dd9d9e4	0.106372625
12	0x3e09f6b1	0.13473012
13	0x3a880c61	0.0010379666
14	0x3c174d43	0.009234729
15	0xbd8a3052	-0.067474976
16	0xbd3e887d	-0.046516884
17	0x3db10df1	0.08645237
18	0xbd8fe28e	-0.07025634
19	0x3e055035	0.13018878
20	0xbcadfb6a	-0.021238048
21	0xbea0eada	-0.31429178
22	0x3dd7cb07	0.10536771
23	0xbd992ad3	-0.07478871
24	0xbde36b22	-0.11104418
25	0xbe7906d8	-0.24319017
26	0x3d64d746	0.055869363
27	0xbdf444e0	-0.11927199
28	0xbdb495bd	-0.08817623
29	0xbdbaea27	-0.09126692
30	0xbe001ece	-0.12511751
31	0x3da22360	0.079169035
32	0x3e19cdd6	0.15019926
33	0x3dac01b0	0.08398759
34	0x3c863104	0.016380794
35	0x3d155a36	0.036462985
36	0x3c8eda71	0.017438145
37	0xb9f60900	-0.00046927482
38	0x3dc9cb91	0.0985328
39	0xbdd129d9	-0.1021306
40	0xbbbaf05c	-0.0057049226
41	0xbe75971d	-0.23983426
42	0xbe1e678e	-0.1546919
43	0xbd664a21	-0.05622304
44	0xbe528f08	-0.20562375
45	0xbd5138ff	-0.051079746
46	0x3e094dad	0.13408537
47	0xbcb25438	-0.021768674
48	0x3c9324a4	0.017961808
49	0xbe6ce70c	-0.23135012
50	0xbc0c2764	-0.008554313
51	0x3de36daa	0.11104901
52	0xbd70977d	-0.05873822
53	0x3db4a6bb	0.08820864
54	0x3caf83a8	0.021425083
55	0x3bf68fc3	0.007524462
56	0x3dab1aaa	0.08354695
57	0x3d072146	0.032990716
58	0x3cdaf4a7	0.026727987
59	0x3df001f1	0.1171912
60	0xbe2d8a0a	-0.16947189
61	0xbb56c30c	-0.0032770066
62	0x3dcd4ad3	0.10024037
63	0xbe06c321	-0.13160373
64	0x3d4bcbaf	0.049754795
65	0x3d3945a8	0.045232445
66	0xbcb5d4d7	-0.022196217
67	0x3df23ba6	0.11827783
68	0x3d139dd0	0.036039174
69	0x3da4aeb8	0.080411375
70	0x3d9f48e9	0.077775784
71	0xbdd4a942	-0.10383846
72	0xbd4cca3b	-0.04999755
73	0xbddb5fd5	-0.10711638
74	0xbc109560	-0.008824676
75	0xbd06868d	-0.03284316
76	0x3d148c78	0.036266774
77	0xbe8075be	-0.2508983
78	0xbe77b57e	-0.24190328
79	0xbd49fa88	-0.04931119
80	0xbd4cd92e	-0.050011806
81	0x3de141e2	0.10998894
82	0x3dd1ae08	0.10238272
83	0xbe41aa08	-0.18912518
84	0xbc8ecca6	-0.017431568
85	0xbe786097	-0.24255596
86	0xbe537622	-0.20650533
87	0xbe55e67e	-0.20888707
88	0xbd8e3217	-0.06943148
89	0xbd94cf3d	-0.0726609
90	0x3d807017	0.062713794
91	0xbdb959e3	-0.09050348
92	0xbd0de31f	-0.034640428
93	0xbe0149d6	-0.12625822
94	0x3da3eac6	0.08003764
95	0x3bb0358a	0.005377476
96	0xbbd7b012	-0.0065822685
97	0x3d509b3d	0.050929297
98	0xbd661ef2	-0.056181855
99	0xbe25b353	-0.16181688
100	0x3e416b28	0.18888533
101	0xbd881da7	-0.06646281
102	0xbe259c2d	-0.16172858
103	0xbdd11c31	-0.10210455
104	0xbe30ce7b	-0.17266266
105	0xbdcd2711	-0.10017217
106	0xbe1d1c9c	-0.15342945
107	0x3c98413b	0.018585792
108	0x3dc05f2e	0.09393154
109	0xbed3d4c7	-0.41373274
110	0xbdfdeabb	-0.12398287
111	0xbea3d42e	-0.31997818
112	0xbdcddd43	-0.10051968
113	0xbe6a2088	-0.22863972
114	0x3deaf7cf	0.11473047
115	0x3ddab6ed	0.106794216
116	0xbe784cd9	-0.24248065
117	0xbe21d88f	-0.15805267
118	0x3d9ed753	0.077559136
119	0xbdbfec90	-0.093712926
120	0x3dc97204	0.098362
121	0xbd745066	-0.059646986
122	0xbdb5b72c	-0.08872828
123	0x3ddbe58c	0.10737142
124	0x3df69093	0.12039294
125	0x3e2e2207	0.17005168
126	0xbe27f32e	-0.1640136
127	0x3d4be796	0.049781404
128	0xbe227b59	-0.15867366
129	0x3d1ec4f6	0.038762055
130	0x3d4b3060	0.04960668
131	0xbd490792	-0.049079485
132	0x3dc1125d	0.09427331
133	0xbe1bbe26	-0.15209255
134	0xbddc6d64	-0.10763052
135	0xbe1ab5df	-0.15108441
136	0xbb0c421a	-0.0021401704
137	0xbddee826	-0.108841226
138	0xbc0af9f3	-0.008482444
139	0x3e0c7166	0.13715133
140	0x3b8cee70	0.004300885
141	0xbd65e2c7	-0.056124475
142	0xbd81bc84	-0.063347846
143	0xbe436cdc	-0.19084495
144	0x3daa0bb7	0.08303016
145	0xbe16df76	-0.14733681
146	0x3e22958b	0.15877359
147	0xbdafe2a9	-0.08588154
148	0x3e6059d1	0.21909262
149	0x3d912847	0.070877604
150	0xbe806488	-0.250767
151	0x3dfa4aa9	0.122212715
152	0x3d17e180	0.037080288
153	0x3aea6dd7	0.0017885518
154	0x3e02e7cb	0.12783735
155	0xbd338ced	-0.04383557
156	0xbe395d4e	-0.18101999
157	0x3e5110e3	0.20416598
158	0xbcf2cbb6	-0.029638153
159	0xbe23306a	-0.15936437
160	0x3d796b8b	0.060893577
161	0xbe550548	-0.20802796
162	0xbe0fd0d8	-0.14044511
163	0x3d76a751	0.06021816
164	0x3df356e8	0.118818104
165	0xbd25157b	-0.04030369
166	0x3d844698	0.06458777
167	0x3d98a339	0.07453007
168	0x3d068178	0.032838315
169	0xbd01be25	-0.031675477
170	0x3d76dd54	0.06026967
171	0x3de55bfa	0.11199184
172	0xbe5860d9	-0.21130694
173	0xbd950836	-0.07276957
174	0x3dadf0ba	0.084931806
175	0x3e08688a	0.13321128
176	0xbd8c437c	-0.06848809
177	0x3c9bff6e	0.019042697
178	0xbe8018c2	-0.2501889
179	0x3def9888	0.11699015
180	0xbe4dbd18	-0.20091665
181	0xbda5eeb0	-0.08102167
182	0x3d68e08c	0.05685477
183	0xbd098d5b	-0.033582073
184	0xbdfd5a42	-0.12370731
185	0xbdd27cc0	-0.102777004
186	0x3d574a05	0.052560825
187	0xbdc4785a	-0.09593268
188	0xbd9c6339	-0.07636113
189	0x3bc214d8	0.005922895
190	0xbe50bb95	-0.20384057
191	0x3dfeec7a	0.12447448
192	0xbe2de231	-0.16980816
193	0x3dba7709	0.091047354
194	0xbdce1a31	-0.10063589
195	0xbe5238da	-0.205295
196	0x3e173e44	0.14769846
197	0x3d360fc0	0.044448614
198	0x3d39d1f6	0.04536625
199	0xbe640326	-0.22266826
200	0xbe3f5bf6	-0.18687424
201	0x3c08350b	0.008313428
202	0xbe623dd9	-0.22093906
203	0x3c83866d	0.01605531
204	0x3d922ace	0.071370706
205	0x3e13d427	0.14436398
206	0xbdb53ec1	-0.0884986
207	0xbd8d078d	-0.06886206
208	0x3adb5a41	0.0016735272
209	0xbd213952	-0.039361306
210	0xbe1582d6	-0.14600691
211	0x3d35ff7b	0.0444331
212	0xbbdb053f	-0.006683975
213	0xbe1e5697	-0.15462719
214	0x3db387c2	0.08766128
215	0x3c1d11df	0.00958678
216	0x3da12701	0.078687675
217	0xbd49fd8a	-0.04931406
218	0x3db0d110	0.086336255
219	0x3c20b227	0.0098081
220	0x3de2dd10	0.110773206
221	0xbe264553	-0.16237383
222	0x3c0e4c37	0.008685163
223	0x3d85856d	0.065195896
224	0xbe8429ee	-0.2581324
225	0xbda44ec0	-0.08022833
226	0x3d0c78ef	0.03429502
227	0x3d66a51c	0.056309804
228	0x3e240ad7	0.1601976
229	0xbe283e4b	-0.16430013
230	0x3d156fe4	0.03648366
231	0x3d9076a4	0.07053879
232	0x3de5c66f	0.11219489
233	0x3da63553	0.081156395
234	0xbdebda36	-0.1151623
235	0xbde6987c	-0.11259553
236	0x3aa2eb70	0.0012429785
237	0x3dc3ae37	0.09554713
238	0xbe0a967a	-0.13533965
239	0x3d6e4f5f	0.058181163
240	0xbd1dad5c	-0.038495407
241	0xbe46564f	-0.19368862
242	0x3dc0afdd	0.09408543
243	0xbd899393	-0.06717601
244	0x3dece1cb	0.11566504
245	0x3e785b88	0.24253666
246	0x3db0e0d2	0.08636631
247	0x3d8260ed	0.063661434
248	0xbe82e433	-0.25564727
249	0xbcf449f1	-0.029820414
250	0xbd5329af	-0.051553424
251	0xbe05e171	-0.1307428
252	0x3dc6bd0b	0.09704026
253	0x3df26acb	0.118367754
254	0x3ba47574	0.0050188843
255	0x3e3f406f	0.18676923

output_fc.bias f4 [10]
0	0xbbe93617	-0.0071170437
1	0xbdf9e945	-0.12202696
2	0xbd0e7136	-0.034775935
3	0xbce49131	-0.027901264
4	0xbc93e5b9	-0.018053876
5	0xbe10c3cd	-0.14137192
6	0x3d29f90a	0.041497268
7	0xbe340168	-0.17578661
8	0x3e588c85	0.21147354
9	0xbb93cfbb	-0.0045108474
